.dart_tool/chrome-device/Default/optimization_guide_prediction_model_downloads/9ddc2fb7-f9bc-4471-b328-1fe53b7b789c/model.tflite (tflite, 498468 bytes, 160 tensors)

context_transformer_0/bottleneck_input/norm/add;StatefulPartitionedCall/context_transformer_0/bottleneck_input/norm/add;context_transformer_0/bottleneck_input/dense/einsum/Einsum;StatefulPartitionedCall/context_transformer_0/bottleneck_input/dense/einsum/Einsum;context_transformer_0/bottleneck_input/norm/mul;StatefulPartitionedCall/context_transformer_0/bottleneck_input/norm/mul;context_transformer_0/bottleneck_input/dense/add;StatefulPartitionedCall/context_transformer_0/bottleneck_input/dense/add;12614;12616;12618 f4 [32]
00000000: b6ef 26bd 8026 83bd 84ba d2bc 047f 0b3d
00000010: 68d2 5c3d b67f 04bc 0e3e 2cbd 10ef b73c
00000020: 0ef7 1b3e 2ac4 983d 4e5a 34be 826a 843c
00000030: 5e38 6c3c 7c86 c0bc f201 683b d23b 75bd
00000040: dc06 d83c c7aa d7bd c8c1 c53c 8846 b63d
00000050: 9989 88bd 00ae 7c3c 3752 5dbd 6f75 42bb
00000060: 3b5d b5ba dcdd 693c f0c0 da3d 639c 90bc
00000070: 4656 6a3c 0ab9 9abd 40df cfbd 58d8 b13d
-0.04075595 -0.06403828 -0.025723703 0.03405668 0.053911597 -0.008087089 -0.042051367 0.022452861
0.15230963 0.0745929 -0.17612574 0.016164068 0.014417736 -0.023501627 0.003540155 -0.059871502
0.026370458 -0.1053062 0.024140254 0.089001715 -0.0666687 0.015422344 -0.054033484 -0.0029672047
-0.0013836989 0.014274087 0.10681331 -0.017652696 0.014302796 -0.07554825 -0.101500034 0.086838424

context_transformer_1/bottleneck_input/norm/add;StatefulPartitionedCall/context_transformer_1/bottleneck_input/norm/add;context_transformer_0/bottleneck_input/dense/einsum/Einsum;StatefulPartitionedCall/context_transformer_0/bottleneck_input/dense/einsum/Einsum;context_transformer_1/bottleneck_input/norm/mul;StatefulPartitionedCall/context_transformer_1/bottleneck_input/norm/mul;context_transformer_1/bottleneck_input/dense/add;StatefulPartitionedCall/context_transformer_1/bottleneck_input/dense/add;context_transformer_1/bottleneck_input/dense/einsum/Einsum;StatefulPartitionedCall/context_transformer_1/bottleneck_input/dense/einsum/Einsum;12706;12708;12710 f4 [32]
00000000: 02e9 973d 228e 29bd 6a4a 963d d41b 763b
00000010: 8a1e a33d 34b6 98bb 9aa6 24bd 479c 33bd
00000020: 2827 4bbd 00ca 78bd 5c53 46bb 846c b5bd
00000030: da7a da3d 83fa b9bd dd89 463e 3ed3 0abe
00000040: e1f4 283d b287 efbd c28a 5a3e 2570 aebc
00000050: d424 583d dedb af3c 9427 c43d eef1 9ebd
00000060: 5985 6e3e 44b8 5fbe d428 05be 739c cabc
00000070: 2cfa 9e3d 5ffb 5f3d a0a5 f3ba 67ce 1c3e
0.074174896 -0.041395314 0.07338412 0.0037553208 0.07964809 -0.004660392 -0.040197946 -0.04385021
-0.04959789 -0.060739517 -0.0030262088 -0.08858588 0.10667963 -0.090809844 0.19388528 -0.13557145
0.04124916 -0.11695804 0.21341994 -0.021293709 0.052769497 0.021467146 0.095778614 -0.07760988
0.23293056 -0.21847636 -0.13003856 -0.024732804 0.0776256 0.054683086 -0.0018588789 0.15313111

mention_transformer_0/bottleneck_input/norm/add;StatefulPartitionedCall/mention_transformer_0/bottleneck_input/norm/add;sequential_1/dense_3/Tensordot/shape;StatefulPartitionedCall/sequential_1/dense_3/Tensordot/shape;mention_transformer_0/bottleneck_input/norm/mul;StatefulPartitionedCall/mention_transformer_0/bottleneck_input/norm/mul;mention_transformer_0/bottleneck_input/dense/add;StatefulPartitionedCall/mention_transformer_0/bottleneck_input/dense/add;mention_transformer_0/bottleneck_input/dense/einsum/Einsum;StatefulPartitionedCall/mention_transformer_0/bottleneck_input/dense/einsum/Einsum;12810;12812;12814 f4 [32]
00000000: 186c 90be 0fb0 6f3d 7477 15bd 23b9 02be
00000010: 2629 5f3d 0cb2 b63d fa65 603e 3b8c 0fbe
00000020: 6855 04be b61f f63d ac36 8e3d 2822 1c3c
00000030: 943c 2abe 12a7 ceba e68a 03be c2d9 343d
00000040: 0c8f 2c3d 437f 24be 8a12 26bd 0068 fab5
00000050: 1e99 243e 0a0f 3dbc e622 41be 729a a6bc
00000060: 94ce 2e3d 5254 383e a6de 423e 96e1 f0bd
00000070: feb6 283e 6bb3 2f3e 5895 1bbe 3a49 693e
-0.2820747 0.058517512 -0.036490873 -0.12765937 0.0544826 0.089206785 0.21913901 -0.14018337
-0.12923205 0.12017767 0.069440216 0.009529628 -0.16624671 -0.0015766344 -0.12845954 0.044152983
0.042128608 -0.16064171 -0.040545024 -1.865672e-06 0.16074035 -0.01153923 -0.18860969 -0.020337317
0.042677477 0.18000916 0.19030246 -0.11761777 0.16476056 0.17158286 -0.15193689 0.2278184

mention_transformer_1/bottleneck_input/norm/add;StatefulPartitionedCall/mention_transformer_1/bottleneck_input/norm/add;sequential_1/dense_3/Tensordot/shape;StatefulPartitionedCall/sequential_1/dense_3/Tensordot/shape;mention_transformer_1/bottleneck_input/norm/mul;StatefulPartitionedCall/mention_transformer_1/bottleneck_input/norm/mul;mention_transformer_1/bottleneck_input/dense/add;StatefulPartitionedCall/mention_transformer_1/bottleneck_input/dense/add;mention_transformer_1/bottleneck_input/dense/einsum/Einsum;StatefulPartitionedCall/mention_transformer_1/bottleneck_input/dense/einsum/Einsum;12902;12904;12906 f4 [32]
00000000: ce96 fa3c a7f1 283d e7b8 26bc c79e 3ebe
00000010: 9d43 97bd f4ad 83bd fb96 31be c635 c13d
00000020: 788a 22bd d15c 1e3e a2f2 4dbd 8a95 ebbd
00000030: dcf4 7b3e c62e 29be a2ee 8abe 1ccf 133e
00000040: af18 a33b 9082 6dbc adcc 563e 38b2 043e
00000050: fd7b 03bb ee68 e63d d27b 0cbe 6095 06bd
00000060: dc31 683e e351 99bd 669b 91bc 4323 673d
00000070: 6861 1f3d a881 12be 4434 613d 7e22 b7bd
0.030589487 0.041246083 -0.01017592 -0.18615256 -0.07385943 -0.06429663 -0.1734275 0.094340846
-0.039682835 0.15465094 -0.05028022 -0.11503132 0.24605125 -0.16521749 -0.27135187 0.14434475
0.0049773077 -0.014496461 0.20976515 0.1295861 -0.0020062916 0.112504825 -0.13719109 -0.0328573
0.2267527 -0.07486322 -0.017774295 0.056430113 0.038911253 -0.14307272 0.054981485 -0.08942126

context_transformer_0/attention/value/add;StatefulPartitionedCall/context_transformer_0/attention/value/add;context_transformer_0/attention/value/einsum/Einsum;StatefulPartitionedCall/context_transformer_0/attention/value/einsum/Einsum;12638 f4 [32]
00000000: 63da 39bd 4526 3e3c e669 81bd 5f52 a53d
00000010: 1c66 36be b593 00bd 4d27 9cbd e51d 213e
00000020: bc34 ab3c 5b0a 843d bb37 b7b9 42c0 9d3c
00000030: 3f35 48bc e3b5 bc3c 2285 5fbd 91f3 09bd
00000040: 246c 3b3c 0d51 9c3d 55e3 c1bd 0501 09bc
00000050: 2c95 9cbd fb9f bcbc 72df e6bd 36e0 0a3e
00000060: dbbf 793b e0b3 85bc 43fd a43c c852 35bd
00000070: 4b24 143d 3ec5 debc b366 8bbc 8258 a93c
-0.045374285 0.011605804 -0.06319027 0.08072352 -0.17812389 -0.031390864 -0.076246835 0.1573406
0.02089917 0.06447288 -0.00034946002 0.019256715 -0.012219726 0.02303595 -0.054570325 -0.03367955
0.011439357 0.07632647 -0.09467188 -0.0083620595 -0.0764564 -0.023025503 -0.112730876 0.13562092
0.003810874 -0.016321123 0.020140296 -0.0442684 0.036167424 -0.027193662 -0.017016744 0.020672087

context_transformer_0/bottleneck_input/norm/mul;StatefulPartitionedCall/context_transformer_0/bottleneck_input/norm/mul;context_transformer_0/bottleneck_input/dense/einsum/Einsum;StatefulPartitionedCall/context_transformer_0/bottleneck_input/dense/einsum/Einsum;context_transformer_0/bottleneck_input/dense/add;StatefulPartitionedCall/context_transformer_0/bottleneck_input/dense/add;12614;12616 f4 [32, 32]
00000000: 595c 4f3e ccca 8c3e d6b7 e1be 7073 d7bd
00000010: 1dbb 8ebc c5b1 a43d c307 7b3e c636 f23d
00000020: 51e4 3bbe 7e4a 613d 6d51 28bd daa5 39bd
00000030: a485 44be ff98 893e 8bc0 183d d23e c13d
00000040: 8cd1 03be a1d1 1e3e 1b3d a33d e37f 3ebd
00000050: cc3f 133e 820c af3d c33e 95bd 285a 37bc
00000060: 6b60 803e 4048 23bc 028d d73c f1e7 463e
00000070: bda3 9c3d dcb2 903e 495b 883e 9a03 9e3e
00000080: fbbe 0abe 7245 a33d f574 ed3c 4373 9d3d
00000090: 51c3 18bf 59e0 38be 4b3f d9bc d1fc 763c
000000a0: dd25 a83e 9ecb 023e c4c1 0d3f bb5f 883d
000000b0: b56f 3f3e 1915 f9be 8d88 dd3e fa5a 1c3e
000000c0: d2fe 573c 5d79 1b3e 5fc7 c23d ce44 623d
000000d0: 76f6 44be 0b94 8ebe aca1 13be 57f2 c8bb
000000e0: e60c 1fbd 9536 9dbe 4dd8 30bf 6c67 adbe
000000f0: 6189 fe3e 78f9 ba39 032f 36bf b73d 03be
00000100: 2be4 843f 89b2 afbd 60bd 853c 8b86 22be
00000110: 08bc 65be 922d 7b3e d089 95be 9a49 6b3e
00000120: e82a 77be 684e 11bf bdb1 15bf 82ad e1bd
00000130: cf74 b23e 00f9 02be 031e 983c b514 e93d
00000140: 41b3 15be 70b5 c3be 6662 373e 5a45 493e
00000150: 2752 ec3c 209d ecbe 8c47 e83e 9d43 fcbe
00000160: 4881 1cbf 2c0f 49be dad0 59be 01cb 463e
00000170: bbf2 91be c768 303d abb0 833e b3dd 0dbf
00000180: 0b29 d83d 25fb f8bc e7f3 6b3e ba1c 0ebf
00000190: feae 88be 4518 01bf 0c95 74be 64c3 d2bd
000001a0: e0c8 19bf 36d1 353e 2729 12bf d034 273d
000001b0: be26 423d 375e c63e 1199 653c 34f9 7abc
000001c0: d512 383e 68b5 bd3d b44a a43e b0f1 5fbd
000001d0: 747a 5abd 9b2c db3e c2ab d63c 4399 dabc
000001e0: fe7f 23be b293 d53e 500e d83c bfda 623e
000001f0: dbad 43be 17e0 fa3e 1e6c f33e 03bb 74bf
00000200: f8db e2bd af29 4fbe 53a4 2bbd 80d6 0b3e
00000210: 122f a0be 6a7d 04be ce0e a5bd a2aa df3d
00000220: 4fca 803e 2877 ba3d b7f3 25be 8443 90bd
00000230: 9655 a7bd ec2d 31be 6e81 203d 4b3c 7f3d
00000240: 42ae a8bb ee38 fe3a b171 153e 71c7 b33d
00000250: a584 b3bd 846c 803e d05c 3c3e 3528 d23d
00000260: 3015 30be bd7f 303d accc 82bd 989b 51be
00000270: 97a8 4fbe b1f6 0abd bac5 1bbe 82c9 9b3d
00000280: 74dd 06bd bef8 183e 0927 c13d 1c41 b93d
00000290: 3d2b 973d 13b4 07be 2d43 ac3e 43f4 9c3c
000002a0: ab86 ffbd 13e2 4f3d cc27 303e 63eb 1cbd
000002b0: f75a 32be bd60 b33e a296 1ebe 0ec9 8bbe
000002c0: f0f6 193e 36e7 ce3d 25be 1dbe fe4a 25be
000002d0: 1012 863e c1b2 5abe 51a2 aabc 3ca1 4ebe
000002e0: 02f7 ac3d e7da ae3b c714 0cbf 47e4 853d
000002f0: 1d9b 343e 604f fc3d 69b4 d7bd 2211 713e
00000300: b2d9 c93d 3895 a6be 8fd5 c83d 3ff8 a7bd
00000310: a4ec a03d c7ad 373e e0d9 c23e 929c 83be
00000320: 8cd1 e43d 3ccd 8bbd aff4 c1be 72e5 03be
00000330: 3704 8abe 985a 1c3e b332 12be de57 0cbe
00000340: 1bed debe 779d b23e b878 333e 49de a2bc
00000350: 3262 a4be 4eed 033e 7292 39bf b1d6 6f3f
00000360: 0fe1 a23e 5077 31be 66ba 223f 059c 643f
00000370: 256c d43e 3eee 19be 1fb0 253e 8571 b03e
00000380: f5c3 973e dc66 163e c3b0 acbc 20c0 d6bd
00000390: 913d 183e 69b7 da3d f302 443e 9e93 503e
000003a0: 8a78 ae3d 37f8 903d cd54 e1be 8512 f33d
000003b0: 815b aebe 7f60 febb 836a 693e cad5 d4bd
000003c0: 41de d83e 238f 45be 6ffd dfbd d658 1abd
000003d0: d208 013f 4362 793e 6bc4 933c 7787 cfbd
000003e0: fa75 5fbe 30dc 2e3e d57a 2abe 1453 263e
000003f0: 5bea 30bd 920d 62be 50d0 343d da03 3dbe
0.20250072 0.27498472 -0.44085568 -0.10520065 -0.017423207 0.08041719 0.2451468 0.118268535
-0.18348815 0.055002682 -0.04109328 -0.045324184 -0.19191605 0.2687454 0.037293 0.0943581
-0.12872905 0.15509655 0.07970639 -0.04650868 0.14379805 0.085473076 -0.072873615 -0.0111909285
0.2507356 -0.009965956 0.026312355 0.19424416 0.07648418 0.2826146 0.26632145 0.30862123
-0.13549416 0.0797223 0.028986434 0.07688 -0.5967303 -0.18054332 -0.026519438 0.015074925
0.32841387 0.12772986 0.5537379 0.06658884 0.18694957 -0.4864891 0.43268242 0.1526908
0.0131833125 0.15183015 0.09510683 0.0552414 -0.19234642 -0.27847323 -0.14417142 -0.006132405
-0.03883066 -0.30705705 -0.6908005 -0.33867967 0.49714187 0.00035662553 -0.71165484 -0.12816511
1.0382131 -0.08578975 0.016325653 -0.15871637 -0.2243501 0.24529102 -0.29206705 0.22977296
-0.24137461 -0.56760263 -0.5847433 -0.11019422 0.34854743 -0.12790298 0.018568998 0.11380903
-0.14619161 -0.38224363 0.1790863 0.19655362 0.028847767 -0.46213627 0.45367086 -0.49270335
-0.6113477 -0.19634694 -0.21271077 0.19413377 -0.285055 0.043068673 0.25720724 -0.5541641
0.10554703 -0.030393193 0.2304226 -0.55512583 -0.26696008 -0.5042766 -0.23884982 -0.10291174
-0.60072136 0.17755589 -0.57094043 0.04082185 0.04740023 0.38743755 0.014013545 -0.015318204
0.17975934 0.09263116 0.32088244 -0.05467385 -0.053339437 0.4280747 0.026204947 -0.026684409
-0.15966794 0.41714245 0.026374012 0.22153758 -0.1910929 0.48999092 0.47543424 -0.9559786
-0.11077112 -0.20230745 -0.04190476 0.13656044 -0.31285912 -0.12938467 -0.080594644 0.109212175
0.2515435 0.091047585 -0.16206251 -0.070441276 -0.08170621 -0.17302674 0.039185934 0.06231336
-0.0051477263 0.0019395628 0.14594151 0.08778275 -0.08765534 0.2508279 0.1839478 0.10261575
-0.17195582 0.04309057 -0.06386694 -0.2046951 -0.20279156 -0.03392667 -0.15212145 0.07606794
-0.032926038 0.14938638 0.094312735 0.09045622 0.07381294 -0.13252287 0.33645 0.019159442
-0.12476858 0.05075271 0.17202681 -0.03831042 -0.17417513 0.35034743 -0.1548715 -0.2730183
0.15035605 0.10102694 -0.15404566 -0.16141888 0.26185656 -0.21357252 -0.020829352 -0.20178694
0.084455505 0.005336154 -0.54719204 0.06537681 0.17637296 0.12319827 -0.105324574 0.23541692
0.09855975 -0.3253572 0.09806358 -0.08201646 0.078576356 0.17937385 0.3805685 -0.2570539
0.111727804 -0.06826255 -0.3788199 -0.12880495 -0.2695634 0.15268934 -0.14277153 -0.13705394
-0.43540272 0.3488576 0.1752652 -0.019881384 -0.32106167 0.12883493 -0.7248908 0.9368697
0.3181233 -0.1733067 0.6356567 0.89300567 0.41488758 -0.15032288 0.16180466 0.3446161
0.2964169 0.14687675 -0.02108038 -0.10485864 0.14867236 0.10679514 0.1914175 0.20368811
0.08519085 0.07078593 -0.4401001 0.11868767 -0.34054187 -0.007762968 0.22794537 -0.103923395
0.42357066 -0.19292884 -0.109370105 -0.037682377 0.50404084 0.2435389 0.018037995 -0.1013326
-0.21822348 0.17076182 -0.16648419 0.1624263 -0.04319225 -0.22075489 0.044143975 -0.184585

context_transformer_1/attention/value/add;StatefulPartitionedCall/context_transformer_1/attention/value/add;context_transformer_0/attention/value/einsum/Einsum;StatefulPartitionedCall/context_transformer_0/attention/value/einsum/Einsum;context_transformer_1/attention/value/einsum/Einsum;StatefulPartitionedCall/context_transformer_1/attention/value/einsum/Einsum;12730 f4 [32]
00000000: 6ab5 0e3d cddb 84bd 5b3f fa3d 7522 ccbd
00000010: bd9a e83c 1bef 19b9 0b9d 5cbe 92da d23c
00000020: 4664 ab3d d35e f53d f522 1cbd bfc6 a83c
00000030: a3d1 4f3c e870 903d e8f0 7b39 c9cc 493d
00000040: 3058 3f3d 8630 6abd 9538 37bd 99a0 b7bc
00000050: d0a4 07be 2036 a03d c1f3 49bc 1bca 303d
00000060: 016a b3bd ea57 c0bd ead9 2cbe a274 07bd
00000070: d55b 433d 6766 08bd 8829 793d c7a6 88bd
0.03484098 -0.06487236 0.12219115 -0.0996751 0.028394097 -0.00014680291 -0.21544282 0.025738988
0.08368735 0.11980977 -0.038119275 0.020602582 0.012684259 0.07052785 0.0002402697 0.049267564
0.04671496 -0.05717518 -0.044731695 -0.022415446 -0.13246465 0.078228235 -0.012326182 0.043161493
-0.08760453 -0.09391768 -0.16880003 -0.033070214 0.047695 -0.033300783 0.060830623 -0.06672435

context_transformer_1/bottleneck_input/norm/mul;StatefulPartitionedCall/context_transformer_1/bottleneck_input/norm/mul;context_transformer_0/bottleneck_input/dense/einsum/Einsum;StatefulPartitionedCall/context_transformer_0/bottleneck_input/dense/einsum/Einsum;context_transformer_1/bottleneck_input/dense/add;StatefulPartitionedCall/context_transformer_1/bottleneck_input/dense/add;context_transformer_1/bottleneck_input/dense/einsum/Einsum;StatefulPartitionedCall/context_transformer_1/bottleneck_input/dense/einsum/Einsum;12706;12708 f4 [32, 32]
00000000: 1f1c 25be bd3f 6e3d aa91 1cbe a86d 833d
00000010: 7e2f 1cbe a6ba 68bd 0088 96be 2c76 8c3e
00000020: 62ad 9bbc 7e0a 513e 35a3 0c3f 7f32 093f
00000030: 134c 71be 46d3 b53d 0175 543d 2c82 783e
00000040: df7a 5dbd f9e3 7a3e 7101 913e c0b9 523d
00000050: b13c e83e 6924 c93e 56de 993e 8c25 033e
00000060: 85c1 29be bdaf 093f 83a7 3bbd 14b7 12be
00000070: 88b2 afbc b4d1 e13e 3d07 b93d 81c2 c0bc
00000080: e33d 8c3d b3a3 fcbd bcde 1dbf c094 d3be
00000090: f22b 573e f779 b5bc 1802 f73e e677 e03c
000000a0: 6770 b9bc 44d4 7d3e e84f 82be 27b2 b7bc
000000b0: 58a0 953d 1566 ecbd 2cc9 553f c908 23bf
000000c0: 0812 413e 3341 0cbe 6d00 9ebd 3410 dd3e
000000d0: 4337 e03d 9ce3 82bd 8a87 d53d 1a62 a5bc
000000e0: cde6 ed3d 428b b23c 3432 1a3d ff6c 783e
000000f0: 5a28 453e 0277 c6bd 7945 6e3e b4a8 b03d
00000100: d616 743e ea05 bf3e c615 5b3d 95d0 c83e
00000110: fe4b c53e b3ba d93d 82f3 a9bd 61dc 2c3e
00000120: 7134 e0be c993 12be 5c42 c4b9 345d bf3d
00000130: 6f09 1ebe 00f3 5f3e 9e3a 0dbd e90c 71bd
00000140: f62e 03bf ab45 abbd 696e 0c3b 4cd3 fbbe
00000150: 43e0 3bbe 6dc1 bcbd 704e 47be c53a bebd
00000160: f309 b0bd a819 76be f776 8d3e 8f30 0c3f
00000170: 0189 e73e 8899 a63e 3d69 123f 2bc6 5bbd
00000180: ab13 e6be b505 66be 65bd 823d 0cd0 f03d
00000190: 62ca dabc 39c7 05be d952 14be 6f27 6b3e
000001a0: 39b3 973e 4ece 1dbe 54c0 d6bc b90f 053d
000001b0: 40ce bc3a da5e febd 85e7 27bd 58e2 98bc
000001c0: e538 e13d b179 4ebe 30a0 1dbe b9a8 af3e
000001d0: d9e0 f23d fd8d 69be 2222 9d3e a88c 16be
000001e0: 5417 0c3e d3f6 74be fb00 03bf b7a9 85be
000001f0: 06af 01be 0c68 9ebe 0bb8 0a3d 8c69 353e
00000200: 61eb 08bd 7c68 8dbd f40a d9be 271d 643e
00000210: dd3d 9d3d 5e7d 303f bdc1 29bd 770b 3e3d
00000220: 6542 b53e 32f6 d5bd 2b3b 423f af4c 923d
00000230: d8fa f53d bf83 e4be 4b57 e8bd a13e df3c
00000240: 6bd1 353e 2f21 eb3e cce3 92bd d399 5f3e
00000250: 379d de3e 1fe0 a23e 4c41 5cbe 804f 033e
00000260: e8db 01be 3521 1a3d 84fc 27bd 8a67 05be
00000270: 70ac 623e bb23 c43e 579d a1bd 6318 263d
00000280: d366 443d baf9 debe 11ee 64be 8ae3 c1bd
00000290: 7e6d ae3e 589d 133e eeea ccbe c265 e53d
000002a0: c888 9a3e d04b 11be 4258 3fbd 287d 423e
000002b0: 403f a43e 28d5 f2be 5a95 0d3a c323 4c3e
000002c0: fbb0 f5be 95e0 58be cd68 5bbe 61ce d63d
000002d0: b7a0 bc3e 9146 873e 747a 023e 11d6 78be
000002e0: 92b6 8b3e 3e5b 0f3e 37cc 2ebe d1bb dbbe
000002f0: 3775 4a3e 5e06 c83e 065d b6be e8c6 03be
00000300: 3dab 353e 2057 42bd 7288 a2bd 5eae a4be
00000310: af40 863e 712e 77be 15b4 14bf 6ff6 873e
00000320: 845b 823d 36aa d53e 85b9 793e 4636 b6be
00000330: 2153 e23e f3a0 0b3e b534 a6be 551f b9be
00000340: 1d4e 283e cf51 013e d9a1 1bbf 2464 dc3d
00000350: 446d d3bd ea9f 20bf 25c7 d63e b7a2 69be
00000360: cc3d a83e 1c81 883d 01e2 2cbe efa8 933d
00000370: 9d57 8ebe 0079 5cbf 394e cc3e 5fca 203f
00000380: a573 b63d 33c2 efbd 8160 003e 35cd 95bd
00000390: 2918 b2bc 1b53 d4bd 11c2 d1bd b80a 2e3e
000003a0: 80a9 6abe 42f6 abbd 0592 c83d ea6b 4abe
000003b0: 5f19 26bd ba11 bb3c dddf b4bd 80e3 5fbe
000003c0: f170 9f3d 45bd c73e 3355 0d3e b492 e2be
000003d0: 89d2 743e 1842 963e 26ea c0be ee60 d03d
000003e0: 7046 87bd 5bf2 973d 0ee9 2d3d c824 c13e
000003f0: 7a18 62be 9c8f 29bd 7116 893e 134f b33c
-0.16124009 0.058166254 -0.15289941 0.064174 -0.15252492 -0.056818627 -0.29400635 0.27433908
-0.019003574 0.20414159 0.54936534 0.53592676 -0.23564176 0.08878188 0.051869396 0.24268407
-0.054072257 0.24501027 0.28321412 0.051446676 0.45358804 0.3928559 0.3005244 0.12807292
-0.16577728 0.5378378 -0.04581405 -0.14327651 -0.021447435 0.44105303 0.09034584 -0.023530247
0.068477415 -0.12335911 -0.6166799 -0.41324425 0.21012858 -0.022152884 0.48243785 0.027400922
-0.022636605 0.24788004 -0.2545159 -0.022423817 0.07305974 -0.11542908 0.8351009 -0.6368528
0.18854535 -0.13696747 -0.07714925 0.43176425 0.1094804 -0.06391069 0.10426243 -0.02018838
0.116162874 0.021794919 0.037645534 0.24260329 0.19253674 -0.09690668 0.23268689 0.086259276
0.23836836 0.373092 0.05348756 0.39221635 0.3853454 0.10631313 -0.082983986 0.16880943
-0.4379001 -0.14314188 -0.00037433475 0.09343949 -0.15433286 0.21870041 -0.03447973 -0.058850203
-0.5124353 -0.083628975 0.0021428114 -0.49184644 -0.18347268 -0.092165805 -0.19463515 -0.09288553
-0.08595648 -0.24033225 0.27629825 0.54761595 0.45221713 0.3253901 0.5719183 -0.053655785
-0.4493688 -0.22463115 0.063837804 0.11758432 -0.026707832 -0.13064279 -0.14484729 0.22964261
0.29628924 -0.1541073 -0.026214756 0.032485697 0.0014404729 -0.12420435 -0.04099228 -0.018662617
0.1099718 -0.20163609 -0.15393138 0.34308413 0.118592925 -0.2280807 0.30690104 -0.14702094
0.13680774 -0.23922281 -0.5117337 -0.26106045 -0.12664422 -0.30938756 0.033866923 0.17716044
-0.0334276 -0.069046944 -0.4239117 0.22276746 0.07677815 0.68941295 -0.04144453 0.046397652
0.35402218 -0.10447349 0.75871533 0.071435325 0.12010735 -0.44631764 -0.11344775 0.027251543
0.17755668 0.45923755 -0.07172355 0.21836023 0.4347932 0.31811616 -0.21509284 0.12823296
-0.12681544 0.037629325 -0.041012302 -0.13027778 0.22136092 0.3830851 -0.07891338 0.0405506
0.047949623 -0.435499 -0.2235644 -0.09467228 0.3406791 0.1441549 -0.40022987 0.112010494
0.3018248 -0.14189076 -0.04671503 0.18993056 0.32079506 -0.4742825 0.0005400978 0.19935517
-0.47986588 -0.21179421 -0.21426697 0.104885824 0.36841366 0.26421025 0.12742025 -0.2430041
0.27287728 0.1399965 -0.1707009 -0.4291673 0.19771276 0.39067358 -0.35617846 -0.12868845
0.17741103 -0.04744637 -0.07936181 -0.32164282 0.26221225 -0.2413881 -0.58087283 0.265552
0.063651115 0.41731423 0.24387176 -0.35588282 0.44204047 0.13635616 -0.32462087 -0.36156717
0.16436048 0.12628864 -0.60793835 0.10761288 -0.10323575 -0.6274401 0.4194881 -0.22815977
0.32859647 0.06665251 -0.16883089 0.07209956 -0.2780122 -0.8612213 0.3990343 0.62808794
0.08908776 -0.117069624 0.12536813 -0.07314531 -0.021740036 -0.103674136 -0.10242093 0.16996276
-0.22916222 -0.08396579 0.09793476 -0.19767728 -0.04055154 0.022835601 -0.08831761 -0.21864128
0.07785214 0.3901159 0.13802032 -0.4425255 0.23908438 0.293473 -0.3767864 0.10174738
-0.06605232 0.074192725 0.042458586 0.37723374 -0.2207965 -0.041396722 0.26774934 0.021888291

mention_transformer_0/attention/value/add;StatefulPartitionedCall/mention_transformer_0/attention/value/add;mention_transformer_0/attention/value/einsum/Einsum;StatefulPartitionedCall/mention_transformer_0/attention/value/einsum/Einsum;12834 f4 [32]
00000000: b1dd 65be e2dd b13d 6b49 d6bc a02a 27be
00000010: d17a 023d 85e0 0abe 8eca 083e f57c 233e
00000020: 205e 39be 796d 02bd 45b2 1f3d 0bfc ec3d
00000030: d2c3 673d 1cb3 9b3e c46b c33b 8215 94bd
00000040: 205b 183e 470c 98bd ba0b b4bc 0e67 6cbd
00000050: 61bf 1a3e 8ea3 24bd 050e 3a3e 981f 413e
00000060: d3ed e03d 7097 91bd c9aa 1a3e 2265 a8be
00000070: 45c2 07be 2a3f f4bd d298 2dbc 699c e8bd
-0.2244785 0.08684899 -0.026158055 -0.16324854 0.031855408 -0.1356221 0.13358518 0.15965636
-0.18102312 -0.031842683 0.03898837 0.11571511 0.056583233 0.30410087 0.0059637744 -0.07230665
0.14878511 -0.07424217 -0.021978248 -0.057715468 0.15112068 -0.04019504 0.1816941 0.18859708
0.10982861 -0.071089625 0.15104212 -0.32889658 -0.13257702 -0.1192611 -0.010595517 -0.11357958

mention_transformer_0/bottleneck_input/norm/mul;StatefulPartitionedCall/mention_transformer_0/bottleneck_input/norm/mul;sequential_1/dense_3/Tensordot/shape;StatefulPartitionedCall/sequential_1/dense_3/Tensordot/shape;mention_transformer_0/bottleneck_input/dense/add;StatefulPartitionedCall/mention_transformer_0/bottleneck_input/dense/add;mention_transformer_0/bottleneck_input/dense/einsum/Einsum;StatefulPartitionedCall/mention_transformer_0/bottleneck_input/dense/einsum/Einsum;12810;12812 f4 [32, 32]
00000000: 48e6 c23d b169 28be c0a9 163d 3deb 0dbe
00000010: 3439 adbc 0dc1 c33d 2953 85be b858 5fbe
00000020: 365f d43c cbfd 5bbe 804f 18be aa89 683d
00000030: 8f25 53be c289 2cbd 0bcc 01be 62f1 05be
00000040: 8625 f5bd d688 883d a4e7 3e3e 504b 6c3e
00000050: 1966 d73e 46dd 36bd 28d0 e9bd cfae c03e
00000060: ab8a c4be 0203 53be daf7 29be 1497 e53e
00000070: ef6a 9d3d bcd4 4f3c 5852 85bd 1744 12be
00000080: 9b7d 723e d941 25be c934 913c cc93 553e
00000090: af8c 7f3e e77e d23e 0f23 15be 8dd8 243e
000000a0: 16be 113f 568f e23b 392d 1d3d a61c 01bd
000000b0: fe5e 7bbd ece4 cfbe 545e 583d 7d9d 1a3e
000000c0: 4fbf e1bd 0551 2bbe 877c e03d b6ea e13e
000000d0: 0494 8a3e 7929 0b3d 9e47 f8bd 800d 163e
000000e0: 6fa4 d5bd 1ebc da3e 8048 aabe c511 4abe
000000f0: 1f90 493e 8be1 723c 9a4a cabd a1a5 81bd
00000100: ad46 8dbe 413f 083d e905 37bd dce6 3f3e
00000110: 00d1 8dbe b321 133e 12a5 ca3d 485e 9fbe
00000120: ad01 563e 5f79 8d3e be45 66bd c027 c43c
00000130: 904e 223e a2ca 11bb 907e be3d 2552 20be
00000140: a1c2 063e 03e4 8c3d 71e5 07be 896b cabe
00000150: 295b e83d be02 213e 3369 1b3e b0eb ac3b
00000160: b363 9f3e 4390 ee3d 9d6d a63d 5efd 01be
00000170: 2295 26bd be62 8dbd 0b68 1f3d 5b00 84bd
00000180: ed3e efbd 95fb 01be f27d fbbd bb61 62bb
00000190: 1bf3 51bc c958 2e3e 93bc 233d f794 7d3e
000001a0: 413d b8be 3702 203e 777b 8dbd da57 17bd
000001b0: eedc 34be 829e d93d 99a5 ce3d d34b 993e
000001c0: bfa0 60bc c766 5bbe 1f4c 07be baca 03bf
000001d0: 35fa 9dbe eb27 103d e40c 16bc c0a4 2dbd
000001e0: adb2 84be 4216 a13e d8a5 793e 4ad4 ca3d
000001f0: 0494 973e 06c5 983d 8caf 003d b4de 843d
00000200: b532 ffbe 9107 5cbc 4fb6 db3d 789a 6b3d
00000210: f49e 153e a96e 8b3e 2dbb d9bd 6a7b 80bd
00000220: 51c1 8d3d 4ef5 d33e 3a7a 9f3e 2ad4 9fbe
00000230: 7275 0b3d 8944 6d3d 1670 da3d ddea a63d
00000240: 66b7 0bbe 8830 ecbc 879b b6be 97ed 603e
00000250: 9e4a b9bd 5af9 c83e 51ff 39be 3fa0 8c3e
00000260: 3c9c cf3e 4768 07be 885a dabc 0786 0abe
00000270: 15f9 36bd f2fd eabd dfb3 8b3b 83bf b9be
00000280: f5fc 193d a7d3 cabe c408 92be cbd0 88bd
00000290: 6489 9bbd a785 1b3d e70e 7b3d 3875 263e
000002a0: d258 f3bc dab5 a13d ecd1 5ebd 3ba4 513c
000002b0: bb2e 80bd e9b9 7cbe 60eb af3d 080d 173e
000002c0: 183d 94bd 0fb4 3dbe 056a b1bd baba 503d
000002d0: 035b 60bb 0c82 79be 34b5 123e f43f eebe
000002e0: a9e6 93be 4cfe d33d 54e1 c83b 92fd c6bd
000002f0: 81d8 3fbc 0432 2fbd 7832 6abe 2858 90be
00000300: 846f 58bd d77c 53be a0f3 04bd 4b67 82bd
00000310: 65e5 9f3d ec82 4d3e 80ad 12bd 76b3 83bd
00000320: cb95 2abd c6fb aa3d f649 98be d15c babb
00000330: 2982 b4bd 82e9 483e fc8f 10bd 000a 9b3c
00000340: 848f bcbd d55f bbbc d366 193e 9857 c83d
00000350: 34d4 11be f316 833e 9933 223e edb7 9dbe
00000360: faad 28be 68b2 36be 0ab9 ba3d 3357 ab3c
00000370: 4078 863d 9add 1abc 6fd3 2cbd eb08 253d
00000380: 3966 12be 7e3f 6f3e 6048 21be a62e 0cbe
00000390: da2b c03e 709c c93e 53fd 66be 85a7 2a3d
000003a0: 23d8 0a3e 69dc 803e 597f ddbd 1f29 293b
000003b0: dead 56be be2b 5ebe b75f 12be d565 09be
000003c0: 7aec 97bd 84c1 f1bc 0246 a63e 0965 c93d
000003d0: 4275 9f3e 44d5 34bd c690 16bb 63ec 1bbd
000003e0: 7f82 cabe 7dce 50bd d5ce c0be 7985 89bd
000003f0: 0120 903e a544 cfbc 2d73 0b3d f6b4 b2be
0.09516579 -0.16446568 0.03678298 -0.13859268 -0.02114544 0.09558306 -0.2604001 -0.21811187
0.025924306 -0.21483533 -0.14874077 0.05677191 -0.20619796 -0.042123564 -0.12675492 -0.13080361
-0.11970048 0.066667244 0.18643051 0.23075604 0.42070082 -0.044644617 -0.11416656 0.37633368
-0.38387045 -0.20606616 -0.16598454 0.44841826 0.076864116 0.012684997 -0.065098464 -0.14283787
0.23680727 -0.161384 0.017725365 0.20857161 0.2495601 0.41112444 -0.14564155 0.16098233
0.56930673 0.0069140596 0.038373206 -0.031521462 -0.06136989 -0.4060434 0.052824333 0.1509914
-0.11022817 -0.16730125 0.10961252 0.44124383 0.27066052 0.0339751 -0.12123035 0.14653587
-0.10431754 0.42721647 -0.33258438 -0.19733341 0.19683884 0.014824281 -0.0987751 -0.06330419
-0.27592984 0.03326345 -0.04468337 0.1874041 -0.27698517 0.14368324 0.09894766 -0.31126618
0.20899077 0.2763166 -0.056218855 0.023944736 0.15850282 -0.0022246023 0.09301484 -0.15656336
0.13160183 0.06879427 -0.13271119 -0.39535168 0.113455124 0.15723702 0.15176849 0.0052771196
0.31130752 0.116486095 0.08126376 -0.12694308 -0.040669568 -0.06903599 0.038917582 -0.0644538
-0.11681924 -0.12693627 -0.122798815 -0.0034543115 -0.0128143085 0.17026056 0.03997476 0.24763857
-0.35984233 0.15625845 -0.06908315 -0.036949016 -0.17662403 0.10625936 0.10090179 0.29940662
-0.0137102 -0.21425925 -0.13212632 -0.5148121 -0.30854955 0.03519432 -0.009158347 -0.042393446
-0.2591757 0.31462294 0.2437967 0.09903772 0.29605114 0.07459454 0.031417415 0.0648779
-0.49843374 -0.013429538 0.10728132 0.05752036 0.14611417 0.27232864 -0.10631404 -0.06273539
0.06921638 0.4139809 0.3114794 -0.31216556 0.03404755 0.05792669 0.1066591 0.08150265
-0.1364418 -0.028831735 -0.35665533 0.21965633 -0.09047435 0.3925274 -0.18163802 0.27466008
0.40548885 -0.13223372 -0.026654497 -0.1352769 -0.044671137 -0.114742175 0.0042633857 -0.36278924
0.037594754 -0.39614603 -0.28522313 -0.06680449 -0.075945646 0.037969258 0.06129351 0.16255653
-0.029705439 0.078960136 -0.054399416 0.012795503 -0.06258913 -0.24680294 0.08589816 0.14751065
-0.07238215 -0.18525718 -0.086628 0.050959326 -0.0034233935 -0.24366015 0.14326936 -0.46533167
-0.28886917 0.10351238 0.006130377 -0.097163334 -0.011709333 -0.042772308 -0.22870815 -0.28192258
-0.052840725 -0.20653091 -0.0324589 -0.06367358 0.078074254 0.20069474 -0.035809994 -0.06430714
-0.04164676 0.08348803 -0.29743928 -0.005687334 -0.088138886 0.19620326 -0.035293564 0.018925667
-0.09207061 -0.022872845 0.1498063 0.09782332 -0.14241105 0.25603446 0.15839995 -0.30804387
-0.16472617 -0.17841494 0.09117325 0.020915603 0.065659046 -0.009452248 -0.042193826 0.040291708
-0.14296807 0.23364064 -0.15750265 -0.1368967 0.37533456 0.39377165 -0.22557573 0.041663665
0.13559012 0.2516816 -0.10815305 0.0025811864 -0.20964763 -0.21696374 -0.14294325 -0.13417752
-0.07418151 -0.02951122 0.32475287 0.09833724 0.31144148 -0.0441487 -0.0022974475 -0.038067233
-0.39552686 -0.050978173 -0.376578 -0.06714911 0.28149417 -0.025301287 0.034045387 -0.34903687

mention_transformer_1/attention/value/add;StatefulPartitionedCall/mention_transformer_1/attention/value/add;mention_transformer_0/attention/value/einsum/Einsum;StatefulPartitionedCall/mention_transformer_0/attention/value/einsum/Einsum;mention_transformer_1/attention/value/einsum/Einsum;StatefulPartitionedCall/mention_transformer_1/attention/value/einsum/Einsum;12926 f4 [32]
00000000: 806c 48be 461d 963e bdee ca3e e680 7a3e
00000010: 7830 9bbe da57 8a3e efac 123b be1f 7fbd
00000020: 1ead 77be 5120 4b3e faa6 b53d daff 0abd
00000030: e5d3 dd3d e5f3 033e 1d9f 5dbe 4d24 78be
00000040: 899c 3c3d 3765 d83d 618f b63d 5e89 8abd
00000050: 60ec 94bd a597 1bbe d27e 113d 0952 7dbe
00000060: 90db 66be a56c 083e 503e 05bd 791f 5f3d
00000070: 1f7a 15bd a715 77bc 5585 1ebe bc84 24bd
-0.1957264 0.2931921 0.39635268 0.24463233 -0.30310416 0.2702015 0.0022380908 -0.06228613
-0.24187133 0.19836546 0.08869739 -0.033935405 0.10831431 0.12886007 -0.21642728 -0.24232598
0.04604772 0.1056618 0.08914066 -0.06764482 -0.072716475 -0.15194567 0.035521336 -0.24738325
-0.22544694 0.13322695 -0.03253013 0.054473374 -0.036493417 -0.015080846 -0.1548055 -0.040165648

mention_transformer_1/bottleneck_input/norm/mul;StatefulPartitionedCall/mention_transformer_1/bottleneck_input/norm/mul;sequential_1/dense_3/Tensordot/shape;StatefulPartitionedCall/sequential_1/dense_3/Tensordot/shape;mention_transformer_1/bottleneck_input/dense/add;StatefulPartitionedCall/mention_transformer_1/bottleneck_input/dense/add;mention_transformer_1/bottleneck_input/dense/einsum/Einsum;StatefulPartitionedCall/mention_transformer_1/bottleneck_input/dense/einsum/Einsum;12902;12904 f4 [32, 32]
00000000: dfc0 2cbe 52cd 8cbe b7f3 65bd 6766 873e
00000010: 5afd c9bd f2cc cb3e 3b0d bf3e da3f 973e
00000020: c248 d33e 75a8 57be e5aa c139 7d96 d7bd
00000030: 8d03 82bd 7dcb 61bd 165b 0dbf 8df5 fabd
00000040: 70b3 853e 0e57 643e d3f0 713e 56c7 2bbe
00000050: 4c34 643e f46f 1bbd 884d cebe 1626 ab3e
00000060: 9278 123f 9ae3 a0be 3d58 2bbe 1269 833c
00000070: c0f0 783e 0edd 3d3d 9b04 abbc 26e5 a83e
00000080: fd97 ae3e d6e6 86bd 05bb f8bd cdeb c63c
00000090: 405e 6c3e d557 8e3e d284 913d e068 5a3d
000000a0: f6b0 483e f9b8 e53d 348e cebd b812 a43d
000000b0: 01d3 53bc 2d53 cdbe 610a 0bbe 2ab1 c4bd
000000c0: 0778 bcbd 6f33 adbe 9b00 ad3e feed 8d3e
000000d0: ec46 a1bd 19bb 373e 5bb1 1bbd 9a3c f93c
000000e0: 9241 fbbe 1617 2c3e b5a9 34be a92a 2dbd
000000f0: fa0f 0a3f c895 f63c 9366 77bc e103 ebbd
00000100: f52e 05bc 4dc1 31be 606f 7c3e acac df3d
00000110: 92ef 52be 7471 67bc b463 81bd 880c e03d
00000120: e765 81bc f4b3 de3e c090 b0bc 1cb1 80bd
00000130: da34 51bd b4a4 02be c135 eabe 411c 7bbe
00000140: 44bd 38be 6abb 1c3e a252 89bc 6b6e 6cbe
00000150: de49 223e 7916 9d3d d700 cfbd a0f5 98be
00000160: 47eb 873e c3c3 c93d 6a5f 39be f972 9c3d
00000170: 7e2d 423e 9f77 b13d c607 1dbe c35d 64be
00000180: c16c a03d 1f50 cc3c d1c7 043e cefa 073e
00000190: 7cbd 06be 2b48 19be 8e64 3bbc adfc f33d
000001a0: f4c1 9bbe c447 a5be 06e9 dc3d e814 4fbd
000001b0: eb10 9fbd 841a 4dbb bd3e 683d 60f6 2abd
000001c0: 53be 8abe b5ea 2bbe e061 c0bd 6d3e e43d
000001d0: d52a 0abc cb7b 4c3d e58b 98be 8dae 213e
000001e0: 6d56 10bf d54c a13e ffab f6bd 3eb2 993e
000001f0: 4e87 dc3c c187 21bc f587 43bc 429a 9bbd
00000200: 4e4c 18bf e95b 48be 1c45 09bd 814e 3c3d
00000210: 140a d73c 11cd 0abc 5af1 8cbd 7512 23be
00000220: 3ef8 a73e 7ddc 183e 8d6b da3d 7357 0f3d
00000230: 0605 c33d 8a5f fb3b e209 23bd 0778 b9be
00000240: 5973 f3bd 49ed b03d 4fa1 2fbe cdd9 a23e
00000250: 3660 f63c 95ed 713e 583f 6fbd acac de3d
00000260: 3333 8c3e 09a9 2dbe c2de 16bb 41a4 a1bd
00000270: b4c1 75be 29a7 71be f184 a03e 69bd 9cbe
00000280: 6e32 e43c 0a8c ffbc 98a8 33be 363a 973d
00000290: ad22 453e 3222 ab3d e244 bd3d f586 13bd
000002a0: ca1c a7bd 9221 b0bd b55e 2bbe ee33 39be
000002b0: 8878 093d af6e 413e c7e6 7a3d ec76 a23c
000002c0: 1382 9cbd 3e82 ad3d b280 8dbd 4be4 7ebd
000002d0: a207 fdbd 07a2 b33c 4d1a 743d bfe5 7d3e
000002e0: 62bf 27be 676c 8d3e 8f36 3f3e 650a 95bd
000002f0: 90b3 b2bc b3d8 a2bc fefd a83c 0022 5e3e
00000300: 95b0 5bbd a7ff 8d3d d286 bcbd 27c7 343c
00000310: eab0 28bc 032e 2abe c171 b5bd 691c 7cbc
00000320: 8fce 68be 28e6 3d3d ec50 6f3e 01b0 fb3d
00000330: 9dca 7b3c 7e08 2a3d c8e6 0e3e f012 b73d
00000340: b901 a93e 069b 303d 0724 9c3d 92bc 07bf
00000350: dec5 8a3e 67d4 17be e8f0 fabe e32b a9be
00000360: 97eb 433e a248 043d 4595 213e 2c06 5e3d
00000370: 9773 ab3d 641e a73d 3141 43bd 3b91 ea3d
00000380: 0a3e e83c d7ea c7ba 55aa 18be 6965 3d3d
00000390: 7e49 36be 3741 9c3d 656c d93d 1fef afbc
000003a0: aa3a 2f3e 0d43 1dbe dc41 91be 5589 eebd
000003b0: 6b00 4d3e 573c 69bd 0bda d9bd 1385 403e
000003c0: dc34 45bc 3086 b03d 4921 483e 5c93 d43d
000003d0: ae82 c9be dceb c1bc c7cb 773e 4852 52bd
000003e0: 9c46 95bd 8c54 073c f5e2 553e 20a6 aabd
000003f0: 919d e1bd 3890 a2bc fb8f 48bd 3a6d 513d
-0.1687045 -0.27500397 -0.056140628 0.26445314 -0.09862776 0.39804798 0.37314782 0.29540902
0.41266447 -0.21060355 0.00036939155 -0.1052675 -0.063483335 -0.055125702 -0.5521711 -0.12253866
0.26113462 0.22298834 0.23627023 -0.1677526 0.22285575 -0.037948564 -0.40293527 0.33427495
0.57215226 -0.31423646 -0.16732879 0.016041312 0.24310589 0.046353392 -0.02087622 0.32987326
0.34100333 -0.06586997 -0.12145046 0.02428236 0.23082829 0.27801386 0.071054116 0.053322673
0.19598755 0.11216921 -0.10085717 0.08011383 -0.012928725 -0.4010252 -0.13578178 -0.09604104
-0.09202581 -0.33828303 0.33789524 0.27720636 -0.078748554 0.17942466 -0.038010936 0.030424405
-0.49073464 0.16805682 -0.17642863 -0.042277012 0.5393063 0.030100718 -0.015100139 -0.11475349
-0.008128871 -0.17358895 0.24651861 0.109216064 -0.20599201 -0.01412617 -0.06317845 0.1093989
-0.015795661 0.43496668 -0.021553397 -0.06283781 -0.051075794 -0.12758142 -0.45744136 -0.24522497
-0.18040949 0.15305868 -0.016763035 -0.23088996 0.1584849 0.07670302 -0.10107582 -0.29874897
0.2654669 0.09851792 -0.18102804 0.07639117 0.18962666 0.08665394 -0.15334997 -0.22301392
0.07833243 0.024940548 0.12966849 0.13279268 -0.1315822 -0.14968936 -0.011437548 0.119134285
-0.30421412 -0.32281315 0.10786633 -0.050557047 -0.07766899 -0.0031296322 0.056700457 -0.041738868
-0.2709833 -0.16788752 -0.09393668 0.11144719 -0.0084330635 0.049922746 -0.2979423 0.15789242
-0.56381875 0.3150393 -0.120445244 0.300188 0.026919987 -0.009859026 -0.01193427 -0.07597782
-0.5949143 -0.19566311 -0.033513173 0.045973305 0.026249923 -0.008471743 -0.06881972 -0.1592501
0.3280658 0.1492786 0.10665045 0.034995507 0.095224425 0.0076713013 -0.039804347 -0.36224386
-0.11887235 0.086390086 -0.17151378 0.31806794 0.030075174 0.23625787 -0.05841002 0.10872778
0.27382812 -0.16959013 -0.0023020958 -0.07892657 -0.23999673 -0.23598923 0.31351426 -0.30613258
0.027856078 -0.031194706 -0.17544782 0.0738415 0.19251509 0.083561316 0.09241654 -0.036017377
-0.08159788 -0.08600153 -0.16735347 -0.18086216 0.033562213 0.18889879 0.061255243 0.019832097
-0.07641997 0.08472107 -0.06909312 -0.062229436 -0.123549715 0.021927847 0.059595395 0.24794672
-0.163816 0.27621767 0.18673156 -0.07277373 -0.021814138 -0.01987872 0.020628925 0.21692657
-0.0536352 0.069335274 -0.092054024 0.01103381 -0.010296086 -0.16619115 -0.088595875 -0.015387633
-0.22735046 0.046362072 0.23370713 0.122894295 0.015368131 0.041512005 0.13955224 0.08939159
0.33009127 0.043116592 0.07624059 -0.5302211 0.27104086 -0.14827119 -0.49011922 -0.33041295
0.19132839 0.03229583 0.15779598 0.054205105 0.083716564 0.081600934 -0.047669593 0.11453482
0.028349895 -0.0015252483 -0.14908727 0.04623929 -0.17801473 0.07629626 0.10616378 -0.021476327
0.17112222 -0.15357609 -0.2837056 -0.11647288 0.2001969 -0.05694231 -0.106372915 0.18800764
-0.012036528 0.08619344 0.19543947 0.10379669 -0.39357513 -0.023672037 0.24198829 -0.051348
-0.07288858 0.008259904 0.20887358 -0.08332467 -0.110163815 -0.01984416 -0.048965435 0.051129557

context_transformer_0/attention/value/einsum/Einsum;StatefulPartitionedCall/context_transformer_0/attention/value/einsum/Einsum3 f4 [32, 32]
00000000: 0ca4 72bb 1fa2 67be afde 0f3f c99e 0a3f
00000010: 0a8b 123e 30c2 c33e 3d86 8abe a246 863e
00000020: 7cf0 b0bd efe8 123c 01ef 1d3f 713a bcbe
00000030: 4cab 06be 29fe 883e 9575 ccbe c9f9 833d
00000040: 7d5a b23e dc87 303e b831 30be 7a8d a0bd
00000050: 6b77 c33d a3c6 b63d 4fc3 1ebd 8635 8e3c
00000060: 2efa 8d3e bf6f 78bd 4462 a53e ad12 9b3e
00000070: 55f7 753d 4551 1cbd 2e73 8d3e 033e c03d
00000080: f5e4 3a3e 621f 75bd f06e 6fbe 54ed 01ba
00000090: fd87 63bd 7eb2 abbb cc1f 5cbc b651 853e
000000a0: ce86 91bd cb66 1cbe 8e5b 2ebe a65e 28be
000000b0: f4e1 79be c603 23be fdd0 f1bd f720 1cbd
000000c0: 10fe 8abe f32d d9bd ab02 713c b65e 07be
000000d0: b335 f43c 9dae 5aba 2b4e d6be e035 06bf
000000e0: ea81 b93d 9d3a a8bd 0a8a bd3e 5e1b 22bd
000000f0: 83a3 b23e d9d6 d93c 0b14 9f3e e852 863e
00000100: dc0d 1f3e 1511 f9be 44d0 663e 42f1 d9be
00000110: 900f 2cbe bea8 f0be 5ca9 56be 98c9 a7be
00000120: 3cc3 863e 6dec 1bbd a686 153e 5d8f 623e
00000130: 8f70 973d 6261 5dbe 8180 e13d d2e0 953e
00000140: 0cc1 503d ff60 16bd 880b d53d 9ad9 b83e
00000150: 4440 9b3e f0e4 45be deb6 a7be 78db a4be
00000160: c77d 5cbe e370 3f3d 2352 1e3e 2ced 02be
00000170: 0215 f7bd 1695 dc3d 98b8 7abe f759 0a3b
00000180: 5a5a c23d 970a 01bf 7be7 a23e 5419 eebd
00000190: 3c01 623e dd65 1c3e 9c27 d0be fbc5 47bd
000001a0: aee8 a3bc 188e c3bd f840 a43d c64f 303e
000001b0: 1054 f33a df50 2dbe ed6a 93bd d4a2 caba
000001c0: 76b9 2b3e 466c d43d 03ed 043d 3772 863d
000001d0: 2e10 62be 1226 cfbd 8962 403e 0101 893e
000001e0: 0b8b 9a3d 5d06 ca3d b6ee dbbe 20a7 efbc
000001f0: beca c3be b203 1dbd 480c 043d 1def c6be
00000200: 475d 783d 4d0f da3b 373d a9bd 91ac dabe
00000210: 2249 51be 09ac a4bd 4bb1 283e 7573 ae3e
00000220: ae52 f2bc 74eb 56bc d263 c5bd 1622 303e
00000230: bacd 73be 080c 29be 610e 88bd 09e9 edbd
00000240: 18fb 0abf 9753 f93e 4024 cc3d e38f ed3d
00000250: 0e0d 5ebe cf35 f83d 0251 923e efd1 603e
00000260: 94fc 9f3e f4c4 903e bd0c 1cbd 2fe7 3b3d
00000270: e5f0 da39 cbef 8cbe 0850 863c 212a efbd
00000280: 6317 a73e d9c5 c7be 904c 11be 4f22 483e
00000290: b76b 7b3a 5e81 fe3a e7ca bf3d 237e 9abe
000002a0: 127c 0ebe 37e1 a03e d031 5b3e d3c5 b1be
000002b0: 50cb 443e 760c 593d 9201 3e3e cb28 913e
000002c0: 2a37 5ebe 1bcd a43e 5c60 abbc a476 973d
000002d0: 957d fdbe bfc1 ec3d 4ed5 273e 68b2 1a3f
000002e0: a0af 463a 13a9 223e e4e3 f23e bf5f 193d
000002f0: 783f 42be 8f06 783e 4820 f93c 10ca 4fbc
00000300: 24e3 babd 0051 eb3c 89e0 51be 1a9f 033e
00000310: 008c 12be 2f28 b0be d230 5ebe a725 aabe
00000320: 4bcf be3d eac1 4abe d4be 0a3d 2162 a6bd
00000330: 9fa7 813e 52a9 52bd b61e 99bd 3511 b5bd
00000340: 24e9 f83d a959 82be 0ad6 6a3c 542f cbbd
00000350: 9876 38bd de8e 083d 2b59 7d3e a53d 40bd
00000360: 433e 78bf 65c5 623d d03c f53e 80fe b73e
00000370: 5bee 123a 5f6c 283d 58b8 203d 1880 2ebe
00000380: f072 adbe 9987 11be 7bf0 1cbe f9e7 033e
00000390: 6377 81be 55be 2b3e 555c a6bb 265a cd3e
000003a0: b72f f43c 37c4 043e bd31 cebe b953 9abe
000003b0: fc3d 9abc 3640 a5be 2d80 7e3b 836c aebe
000003c0: 897e d0be 7c49 363e 486a 863e f842 a03c
000003d0: f932 18be cabf 51bd 176b 893e e16d 95be
000003e0: 5439 90be 453f f63d 2a55 a93e a17e 3b3e
000003f0: 6f3b 493e a1e5 96be 6321 b83e cbab 9fbc
-0.003702405 -0.22620438 0.56199163 0.54148537 0.14310852 0.3823409 -0.2705554 0.26225764
-0.08639619 0.0089666685 0.61692816 -0.36763337 -0.13151282 0.2675641 -0.39933458 0.06444127
0.34834662 0.17239326 -0.17206466 -0.078394845 0.095442615 0.08924606 -0.03876048 0.017359506
0.27729934 -0.060653444 0.32301533 0.30287686 0.060050327 -0.038163442 0.27626938 0.09386828
0.18251403 -0.059844382 -0.23382163 -0.0004956324 -0.05554961 -0.005239784 -0.013435315 0.26038903
-0.0710579 -0.15273587 -0.17027113 -0.16442356 -0.244026 -0.15919408 -0.118074395 -0.038117375
-0.2714696 -0.10604467 0.014710109 -0.13219723 0.029810762 -0.00083420594 -0.41856512 -0.52425957
0.09057982 -0.082143046 0.37019378 -0.03957688 0.34890375 0.026591705 0.3106998 0.26235127
0.1553263 -0.48645845 0.22540385 -0.42566878 -0.16802812 -0.4700374 -0.20963043 -0.3277099
0.26320827 -0.03806727 0.14602146 0.22125001 0.07394516 -0.2161918 0.11010838 0.29273087
0.050965354 -0.036713596 0.1040259 0.36103517 0.30322468 -0.19325614 -0.32756704 -0.3219869
-0.21532355 0.046738517 0.1546102 -0.12785786 -0.12064554 0.107706234 -0.2448448 0.0021110752
0.094898894 -0.50406784 0.3181723 -0.11625925 0.22070783 0.15273233 -0.4065522 -0.048772793
-0.020008411 -0.095485866 0.08020204 0.17217931 0.0018564481 -0.16925381 -0.07198129 -0.0015459904
0.16769966 0.10372214 0.032452594 0.065647535 -0.22076485 -0.10114683 0.18787588 0.26758578
0.075460516 0.09864495 -0.4295556 -0.029254496 -0.38240618 -0.038333602 0.032238275 -0.38854304
0.06063583 0.006654656 -0.08263629 -0.42709783 -0.20438054 -0.080406256 0.16473882 0.34072462
-0.02958044 -0.01311766 -0.0963818 0.17200503 -0.23808947 -0.16508496 -0.066433676 -0.116167136
-0.5428939 0.48696586 0.09967852 0.1159971 -0.21684667 0.12119638 0.2857743 0.21955083
0.3124739 0.28275263 -0.038098086 0.04587477 0.0004175968 -0.27526698 0.016395584 -0.11677957
0.3263503 -0.39018133 -0.14189363 0.19544338 0.0009590941 0.0019417217 0.093648724 -0.3017436
-0.13914517 0.31421825 0.2140572 -0.3472124 0.19218183 0.0529904 0.18555287 0.28351435
-0.21700731 0.32187733 -0.020919971 0.07395676 -0.49509874 0.11560392 0.16389963 0.60428476
0.0007579271 0.15884809 0.47439492 0.037444826 -0.18969524 0.24221252 0.0304109 -0.012682453
-0.09125355 0.028725147 -0.2049581 0.12853661 -0.14311218 -0.34405658 -0.21698311 -0.3323185
0.09316882 -0.19800535 0.033873394 -0.08124185 0.25323197 -0.051431008 -0.07476561 -0.088411726
0.12153843 -0.2545903 0.014333257 -0.099211365 -0.045034975 0.033339374 0.24741046 -0.04693379
-0.96970004 0.05536403 0.4789796 0.35936356 0.0005604976 0.041118976 0.039238304 -0.17041051
-0.33876753 -0.14211883 -0.15326111 0.1288146 -0.25286397 0.16771825 -0.005076925 0.4010784
0.029807908 0.12965475 -0.40272322 -0.30142 -0.018828385 -0.32275552 0.0038833723 -0.34067163
-0.4072154 0.1780147 0.2625296 0.019563183 -0.14863195 -0.051208295 0.26839516 -0.29185393
-0.28168738 0.120237865 0.33072788 0.18310024 0.19651578 -0.29472068 0.35962972 -0.019491097

context_transformer_0/kq_shared_bottleneck/dense/einsum/Einsum;StatefulPartitionedCall/context_transformer_0/kq_shared_bottleneck/dense/einsum/Einsum f4 [32, 32]
00000000: 1dc7 10be 11ea a5be 32cb 9e3d b2cd 84be
00000010: 6f34 923e 2b06 68be 4dc7 eebd 7c82 c03e
00000020: be46 483e 2b37 163e 8ee0 b8be 093f 2f3c
00000030: 54a1 3bbe 77c3 56be 1b1b 45be 1ab5 86be
00000040: 6e45 c63c c37b eb3d 254f 8a3d 7d11 f9ba
00000050: 8445 6e3c f5fc 66be f707 94bd 5ef6 c3bd
00000060: 5e2c a63e 75c1 173e fe4c 0abe 501e 843e
00000070: 6a82 8ebc e49a afbe 403a a23c 76d3 4ebe
00000080: ee96 28be 0d36 88be d057 e83d 681a 3a3d
00000090: d3c9 e9bd 4a11 20be 4996 d53e a0da cabd
000000a0: 6c4e b9be 4287 893e c6e1 14be 5347 453a
000000b0: 3e8a 6bbb 50e3 073e 74e0 4f3e 93b7 46be
000000c0: 3d4f e7be 8804 b33d b041 843e 6623 1e3d
000000d0: cbca 8dbe 3da5 08be e632 81bd 8273 a13e
000000e0: ef73 ef3e ac67 15be 3ae2 d7bb 6a0a 233e
000000f0: 66cd f8bd 8e79 23be dc66 70be 826a 5e3e
00000100: 0cf4 afbe ab39 543e d23c 8c3e 0242 653c
00000110: b55c 12be 4f81 933e d8e4 693e 5559 9d3e
00000120: 01ee d03b 50b5 92be 8946 01be 45d5 4abe
00000130: 3944 eabd 1c39 e23d 57a4 993e a282 ac3d
00000140: 47d7 cf3e 43b8 64bd 629d 343c 1f33 19bd
00000150: b324 4d3e 094b 7a3d a942 b93b 2211 9e3c
00000160: f78f 0d3e 0a97 85bd cad6 10bf 069e 93be
00000170: 97f8 833c 1793 083f 2320 803d fd3e 1dbe
00000180: 6bf1 2abd fff1 323e b0b6 763e ad1b e03d
00000190: 3d42 053f f050 00bf 975b 8cbd 043a 6dbe
000001a0: 3e27 ba3e 06db f4bd dca3 dd3d 9e95 ef3d
000001b0: 20e9 2fbe e8e8 c43d e0dc d5be 92d5 ad3d
000001c0: 79d6 f3bd 2dd6 9f3e 40c8 cdbe 9364 843e
000001d0: eb4c 82be e01c 0abe 9e86 c6bd 691d 073c
000001e0: ace7 4d3c 9ecc 94be 7cb9 a43d 8232 a4bd
000001f0: 5fd8 a53d 8845 85be 7caf 033d a45c bbbc
00000200: a306 8fbe 5f6a bbbd f10c 4bbe 7c69 3cbd
00000210: 601b 42be c945 b53e 076d 50bd a323 c13e
00000220: 7265 a4be ebe4 0ebd 2482 00bd 2269 473d
00000230: 32da e93c 95b8 0fbe 7919 96bd b380 093e
00000240: 515d 903d 4a72 81bd 58be ea3d 1058 7cbe
00000250: 2db0 b33e ad8b 7bbd 2c60 cb3c de57 f7bd
00000260: 5f42 5f3e c4e5 90be d3a2 55be 6ef4 d3be
00000270: 4b59 043e c646 82be ebcb 323d 0c76 3cbe
00000280: cf53 cbbe 0ddc 90be 0bae 323e 9b69 473d
00000290: fa8a e93b 7ed1 83bd 8c40 303d 5fad 5cbe
000002a0: 3932 9cbe 8160 953c 108c ff3d 9ebb 223e
000002b0: cf0e ac3d 5968 743e 4acc 4a3c 9081 4b3d
000002c0: 4c9e 71be a49d cdbd 69bd 463e 0d27 a4bc
000002d0: 4a0d 423d 2ec4 cbbd a9c0 153d 6868 48bd
000002e0: c3d6 653e 3761 c2be 425f d1bd e3e5 b1be
000002f0: 7be8 abbd 8a23 24be 368e c33c ecb5 2c3e
00000300: 6baf 91be 20b4 e63e 4b76 d23d 1f2c 9c3c
00000310: d78b ba3d 2183 5e3e d215 4d3e 00be a43e
00000320: b60d 42be 4343 ffbd ef84 383e 048f db3d
00000330: cf36 6cbe 83e9 543e 5cc9 723d 7db0 a43c
00000340: 29ee dc3e 3fd3 92be 538f eebd 8fbe 7cbe
00000350: 4bc8 b13e 9e7f fe3d a8b5 b63d c040 65be
00000360: ab89 373d b067 39bd 3703 40be ffa7 90be
00000370: dcfe 043e c7b5 af3e 80c8 463e 7770 ba3d
00000380: 7053 cbbe e491 443d 4fc7 8c3e b74d 6e3e
00000390: 95ef 743e 1757 60be 76e8 11be 3f04 df3d
000003a0: b3de a03e 34c9 113d 5625 63bd c72d 3d3d
000003b0: a978 303c 60bb e53d a37a 03be 0502 39be
000003c0: 026f 5d3e dcaa 993e ff8c dbbd b03d 523d
000003d0: d6ac c23d f236 9cbd 5d17 08be 65a6 b2bd
000003e0: cf64 563e 98e6 2b3e ed6d 77bd addd a63e
000003f0: 6e45 eaba aa45 96bb 1983 6cbd 6d6f 9cbd
-0.14138456 -0.3240514 0.077536 -0.25938183 0.2855563 -0.22658603 -0.11659107 0.37599552
0.19558236 0.14669482 -0.36108822 0.010696181 -0.1832326 -0.20973001 -0.19248621 -0.26310045
0.024203029 0.11498215 0.06753377 -0.0019002404 0.014542941 -0.22557433 -0.07228082 -0.09568475
0.32455724 0.14819892 -0.13505933 0.25804377 -0.01739617 -0.3429786 0.019803166 -0.20197853
-0.16463825 -0.26603737 0.11344874 0.04543534 -0.11415448 -0.15631595 0.4171622 -0.09904981
-0.36192644 0.26861006 -0.1453925 0.0007525582 -0.0035940553 0.13270307 0.20300466 -0.19405966
-0.45177642 0.08741099 0.25831366 0.038607977 -0.2769378 -0.13344283 -0.06308536 0.31533438
0.46768138 -0.14590329 -0.0065882476 0.15921941 -0.12148552 -0.15964338 -0.23476738 0.21720317
-0.3436588 0.20725124 0.27390152 0.013992788 -0.14293177 0.28809592 0.22841203 0.30732217
0.0063760285 -0.28653955 -0.12624563 -0.19807918 -0.11438794 0.11046049 0.30008194 0.08423354
0.4059393 -0.05583979 0.011023851 -0.03740227 0.20033531 0.061106715 0.0056536985 0.019295279
0.1382445 -0.06522949 -0.5657774 -0.288315 0.016109748 0.5334944 0.062561296 -0.1535606
-0.04173414 0.17475127 0.24093127 0.10942779 0.52054197 -0.501235 -0.06853407 -0.23166662
0.36358064 -0.11955838 0.10822269 0.11698459 -0.17178774 0.09614736 -0.41770077 0.08488001
-0.11906142 0.3121809 -0.4019184 0.25857982 -0.2544931 -0.13487577 -0.09693645 0.008246758
0.012567442 -0.2906236 0.08043191 -0.08017446 0.0809791 -0.2602961 0.032149777 -0.022871323
-0.2793475 -0.09151148 -0.19829156 -0.045999035 -0.18955755 0.35404804 -0.050885227 0.377225
-0.32108647 -0.034886282 -0.03137411 0.048684247 0.028546426 -0.14035256 -0.07329077 0.13428001
0.07049049 -0.06320627 0.114620864 -0.24642968 0.3509535 -0.061412502 0.024826132 -0.12077306
0.21802662 -0.28300297 -0.20862894 -0.41397423 0.12924688 -0.2544462 0.043651503 -0.18404406
-0.39712378 -0.28292885 0.17449205 0.048684698 0.007127163 -0.06436442 0.043030307 -0.21550511
-0.30507067 0.018234493 0.12477887 0.15891883 0.08401262 0.2386793 0.012377808 0.049684107
-0.23595542 -0.10039833 0.19408192 -0.020038152 0.047375955 -0.09949528 0.03656069 -0.048927695
0.22445206 -0.37964794 -0.10223247 -0.34745702 -0.083939515 -0.16029182 0.023871522 0.16866273
-0.28454146 0.450593 0.10276469 0.019064007 0.091087036 0.21729709 0.20027855 0.32176208
-0.18950543 -0.12464001 0.1801946 0.107206374 -0.23067783 0.20792203 0.059274063 0.020103687
0.43150452 -0.28676793 -0.11648431 -0.24682067 0.34723124 0.12426685 0.08921367 -0.22387981
0.044809025 -0.0452649 -0.18751226 -0.2825317 0.12987846 0.34318373 0.19412422 0.09103482
-0.39712095 0.047990695 0.2749581 0.23271833 0.23919518 -0.21908222 -0.14248833 0.10889482
0.31419906 0.035592273 -0.05545553 0.046186235 0.010770955 0.112173796 -0.12839751 -0.18067177
0.21624377 0.30013168 -0.10720252 0.05132836 0.09505622 -0.076276675 -0.13290162 -0.087231435
0.20936893 0.16787183 -0.060407568 0.32591 -0.0017873475 -0.0045859413 -0.057742212 -0.0763844

context_transformer_0/attention/attention_output/einsum/Einsum;StatefulPartitionedCall/context_transformer_0/attention/attention_output/einsum/Einsum f4 [32, 32]
00000000: d512 4f3e 9b6f b0be fe87 e63e c6a7 f73e
00000010: fe23 2fbc e383 983d 6977 5bb9 462a 49be
00000020: 4e03 77be a249 47be 5616 87be 2028 13be
00000030: 0c46 d8bd 3371 0a3e f97a b3be 4319 9c3c
00000040: 7075 75be 2a5a af3e eed0 83be 5fc9 ef3d
00000050: 7b70 7cbe 270c 99be 253c 703e 7d29 85bd
00000060: 622d 96be 89ab 11bf 7702 6ebe eeed 05bf
00000070: e60e 293e 967e 8dbe d775 483c 2645 e3be
00000080: fba7 2a3c f4cc c73e 2bfb 3d3d 60dd 6cbe
00000090: 8eba 373e fc2f a5be 2248 d1bd 828b 0e3e
000000a0: 84eb 90bc cd43 1dbf 8583 94be ef35 b53e
000000b0: eb69 12be 2012 f93e d301 f43d 29d5 2d3c
000000c0: 023c 153d a2bb 31be 9db6 413e e4b6 373c
000000d0: 5ef5 3cbe 0cc4 19be 0b8d 61be b375 42be
000000e0: 40f6 9bbd 72bf 3dbd 428a ebbd b1dd ef3d
000000f0: 2169 803e d214 073e 9086 453e 3e11 b0be
00000100: d193 a53e 69e6 4bbe dd7e 93be 7792 053d
00000110: 2d3c 15be 10c1 823e b793 0cbe 3814 b33d
00000120: 8959 21be 2f36 cb3d ea49 2dbd d566 b8bd
00000130: 8cc4 0ebd 9691 23bd d465 79bd d7b7 7cbe
00000140: 2fce 9e3c 4f1b 7cbe 7d2a 403e 6bba ea3d
00000150: 1040 ae3d 338b 5cbd 3c0d 5dbe 0401 ddbd
00000160: 1f82 393e 1cf3 dcbe 5a20 9ebd f81f a6bc
00000170: 4b2b 5fbb c871 b8be 12bc ccbd 806d 3c3d
00000180: 0899 e13d 450e 30be e8cf 983d 1e06 c3bd
00000190: 745f 313e b14b 443d deaf a93e 10a2 973e
000001a0: 48ca eb3d 9fb1 153d 6c0d 823c 0ffa 03be
000001b0: 47d8 31bc d14e de3d 80a7 e73d 2aa0 85be
000001c0: d212 193e a08a 2a3e 930a 8c3e 7090 b73c
000001d0: a8bd 823e e0db 8bbd 43f6 bf3d f351 d6bd
000001e0: 1f85 47be 0323 18be 92b9 bdbd 5dbb eb3d
000001f0: e505 06bf e97d 07bf f3ab 153f 6a9c 4fbc
00000200: 6af5 da3d 6064 273e f288 d93a b920 c1bd
00000210: a98e a33e 8ba3 31be 4088 b9bd 6281 03be
00000220: 595b 83be d364 2bbe f358 b13e cd70 863d
00000230: 498f 9abe 358f e6bb d5c9 92be ca19 63bd
00000240: 50fe a2bd 034f b83d 5b3f 133e 5e38 efbc
00000250: f334 cd3d a8d0 853e e4ec 7b3e 6773 f33c
00000260: daf8 6bbd 7f23 393e 9995 523e aac6 b8be
00000270: cb6a 0bbe 464f 823e a9d4 ffbe 9213 d13e
00000280: f62f dc3e ecde dabd de16 7abe 4f9b d83e
00000290: a2d1 5cbe aeef 033e d3e7 e8bc 9596 383e
000002a0: 4b4b f4be a4ac ec3d c5d8 fdbc 5810 ca3d
000002b0: 72fe f83d deaf 4a3e 2b29 90be 9dc5 41be
000002c0: b9f4 353e b70e bd3e 265c 89be d1c7 d83d
000002d0: 85a2 80be 70aa 93bd a8e6 53be 489f 5d3d
000002e0: ac02 db3e b38f fabe a09c 8cbe 905e 88be
000002f0: 8f95 b23e a1c9 03bd 8487 e4bc c8e0 943e
00000300: a307 3c3e ee79 83bd 1fc9 eabd 73cf 773d
00000310: 5800 0cbe eeb3 24be 6f6e 473e ad86 f9bd
00000320: 54cc 8abe afc4 04bd 6357 c73d 3116 36be
00000330: da46 373d fd7b ccbe f636 7a3e 73bd 833e
00000340: c2d9 50be 2817 cc3c 7f89 203e 6fdb 10be
00000350: d711 a3bd 18b9 46be f52b 1bbe d19b d33d
00000360: 4ba4 243e 03a1 e8be 710f 89be 13fc 4b3e
00000370: 9385 923d b8c2 31be 3c06 0b3e 8dd5 873e
00000380: eaa0 af3d 7ad5 dd3d 4de7 353d ac19 65bd
00000390: 56f7 f3bd d1cb 593e bdb8 1e3e 40ed e0be
000003a0: f0bf cfbe 3d67 6cbd 81ba 8fbe a7ab 173c
000003b0: 0b59 da3e 6922 43be 6e0b b3be 2ed2 6a3e
000003c0: 585b a0be 154d e939 8501 c03d 7b9a e23d
000003d0: e9ec 33bf ee5c 813e ec7a 883e ee88 4abd
000003e0: 3a2e dfbd b56d d6be 606b 9cbe def3 9f3e
000003f0: 4672 073f c608 0f3f 2609 93be d428 3ebe
0.20222028 -0.34460148 0.4502563 0.48370188 -0.010689734 0.074470304 -0.00020929951 -0.19645032
-0.24122354 -0.19461682 -0.26384228 -0.14370775 -0.105602354 0.13519745 -0.35054758 0.019055014
-0.2397058 0.34248477 -0.25745338 0.1170833 -0.24652283 -0.29892084 0.23460443 -0.06502054
-0.293315 -0.56902367 -0.23243128 -0.52316177 0.1650959 -0.2763564 0.012235126 -0.44388694
0.010416026 0.39023554 0.04638211 -0.23131323 0.17942259 -0.32263172 -0.10218836 0.13920406
-0.017690428 -0.6143158 -0.2900659 0.3539271 -0.14298217 0.4864664 0.119144104 0.010609903
0.03643418 -0.17356732 0.18917318 0.011213038 -0.18452975 -0.15016192 -0.2202646 -0.18990211
-0.07615328 -0.046325155 -0.1150098 0.11712206 0.25080207 0.13191536 0.19289613 -0.34388155
0.32339337 -0.19912113 -0.28807727 0.032610383 -0.14573736 0.2553792 -0.13728224 0.08744091
-0.15756811 0.09922444 -0.042306818 -0.09003989 -0.03485541 -0.039933763 -0.060888126 -0.24679504
0.019385425 -0.24619792 0.18766208 0.11461338 0.08508313 -0.05384369 -0.2158708 -0.10791209
0.18116044 -0.43154228 -0.07721014 -0.020278916 -0.0034052904 -0.36024308 -0.09996809 0.046002865
0.110155165 -0.17192943 0.0746153 -0.09522651 0.17321569 0.047923747 0.3314199 0.2961583
0.115131915 0.036546346 0.01587554 -0.12888359 -0.010854787 0.10854877 0.11311245 -0.26098758
0.14948586 0.16654444 0.27351817 0.02240774 0.2553532 -0.06829047 0.093731426 -0.10464849
-0.19484375 -0.14857106 -0.0926391 0.11510346 -0.52352744 -0.529265 0.584655 -0.012671569
0.1069134 0.16346884 0.0016596599 -0.094300695 0.3194478 -0.17347543 -0.09059191 -0.12842324
-0.2565563 -0.1673768 0.34638175 0.06564484 -0.30187443 -0.0070361146 -0.2866961 -0.055444516
-0.079586625 0.08999445 0.14379637 -0.029201683 0.10019865 0.26135755 0.24602085 0.029718114
-0.05761037 0.18079947 0.2056488 -0.3608907 -0.13614957 0.25451106 -0.49966934 0.40835243
0.4300534 -0.1068705 -0.24422786 0.4230599 -0.21564344 0.128844 -0.028430855 0.18026192
-0.47713694 0.11556366 -0.030987153 0.098663986 0.121579066 0.1979365 -0.2815641 -0.1892304
0.17769136 0.3692529 -0.26828116 0.10584987 -0.25123993 -0.07210243 -0.20693457 0.05410698
0.42775476 -0.4893776 -0.27463245 -0.26634645 0.3487973 -0.03217471 -0.02789665 0.29077744
0.18362288 -0.064197406 -0.11464142 0.060500573 -0.13672006 -0.16084263 0.19475721 -0.121838905
-0.27109015 -0.032414135 0.097334646 -0.17781903 0.044745304 -0.39938346 0.24435028 0.25730476
-0.20395568 0.024913386 0.1567745 -0.14146207 -0.07962387 -0.19406545 -0.15153487 0.10332454
0.16078298 -0.45435342 -0.26769593 0.19920377 0.071543835 -0.17359436 0.13576597 0.26530114
0.08575614 0.10831733 0.04441004 -0.055932686 -0.1191241 0.21269156 0.1550016 -0.43931007
-0.40576124 -0.057715643 -0.2807198 0.009257234 0.4264606 -0.19056095 -0.34969658 0.2293174
-0.3131969 0.00044498654 0.0937529 0.11064621 -0.7028337 0.25266212 0.26656282 -0.049446993
-0.10897489 -0.41880575 -0.3055067 0.31240743 0.5290874 0.5587276 -0.28717917 -0.18570262
